model_quantized.tflite (tflite, 41960 bytes, 6 tensors)

model_9/dense_19/MatMul i1 [4, 100] scale=0.010594914 zero_point=0
00000000: 0502 1df4 faf0 ec03 81f0 e9d8 fa1b 1103
00000010: 0d0d ec0b fcfa 14fb 0906 06cc 08d0 fb01
00000020: 1605 d609 f006 1010 0316 1f0f f2fd f8f7
00000030: befe 0b32 f8fd bf13 05f3 00fb f0ee 148d
00000040: 0afb f31a 0d01 0f03 2910 0410 15f8 f402
00000050: 1f27 fff1 1aff fc04 fd04 e60d 12c0 00d5
00000060: 0efc 071f 08fb e9e9 0cee dff9 1607 fd1a
00000070: ffc9 1315 fe13 f30d 11f2 f80c 0e04 f005
00000080: 1515 ee08 1709 1bf2 07ca e409 0801 0fea
00000090: eaf7 1313 1701 08e7 09eb 1406 19ef 1102
000000a0: fef3 1423 ec14 1b11 2104 0cff ca11 f811
000000b0: 1000 1ffa f0fd fa0c 1705 f5d2 12f6 cb06
000000c0: 1516 ff1d f0e6 e712 06f0 e3e1 ef05 1ffa
000000d0: 2811 ec19 e42c ddf8 eadd 16fa f3f6 f315
000000e0: f8ea f5fa d918 11fa 05d4 1708 fcfd e70a
000000f0: 13f0 f8f6 09f2 fd06 0efc f004 eb08 1e0e
0.052974567 0.021189827 0.3072525 -0.12713897 -0.063569486 -0.16951862 -0.21189827 0.031784743
-1.345554 -0.16951862 -0.24368301 -0.42379653 -0.063569486 0.28606266 0.18011354 0.031784743
0.13773388 0.13773388 -0.21189827 0.11654405 -0.042379655 -0.063569486 0.21189827 -0.052974567
0.09535422 0.063569486 0.063569486 -0.5509355 0.08475931 -0.5085559 -0.052974567 0.010594914
0.2330881 0.052974567 -0.44498637 0.09535422 -0.16951862 0.063569486 0.16951862 0.16951862
0.031784743 0.2330881 0.32844234 0.1589237 -0.1483288 -0.031784743 -0.08475931 -0.09535422
-0.6992643 -0.021189827 0.11654405 0.5297457 -0.08475931 -0.031784743 -0.6886694 0.20130336
0.052974567 -0.13773388 0.0 -0.052974567 -0.16951862 -0.19070844 0.21189827 -1.218415
0.10594913 -0.052974567 -0.13773388 0.27546775 0.13773388 0.010594914 0.1589237 0.031784743
0.43439147 0.16951862 0.042379655 0.16951862 0.22249319 -0.08475931 -0.12713897 0.021189827
0.32844234 0.41320163 -0.010594914 -0.1589237 0.27546775 -0.010594914 -0.042379655 0.042379655
-0.031784743 0.042379655 -0.27546775 0.13773388 0.19070844 -0.6780745 0.0 -0.45558128
0.1483288 -0.042379655 0.0741644 0.32844234 0.08475931 -0.052974567 -0.24368301 -0.24368301
0.12713897 -0.19070844 -0.34963214 -0.0741644 0.2330881 0.0741644 -0.031784743 0.27546775
-0.010594914 -0.5827203 0.20130336 0.22249319 -0.021189827 0.20130336 -0.13773388 0.13773388
0.18011354 -0.1483288 -0.08475931 0.12713897 0.1483288 0.042379655 -0.16951862 0.052974567
0.22249319 0.22249319 -0.19070844 0.08475931 0.24368301 0.09535422 0.28606266 -0.1483288
0.0741644 -0.5721253 -0.2966576 0.09535422 0.08475931 0.010594914 0.1589237 -0.2330881
-0.2330881 -0.09535422 0.20130336 0.20130336 0.24368301 0.010594914 0.08475931 -0.26487285
0.09535422 -0.22249319 0.21189827 0.063569486 0.26487285 -0.18011354 0.18011354 0.021189827
-0.021189827 -0.13773388 0.21189827 0.37082198 -0.21189827 0.21189827 0.28606266 0.18011354
0.34963214 0.042379655 0.12713897 -0.010594914 -0.5721253 0.18011354 -0.08475931 0.18011354
0.16951862 0.0 0.32844234 -0.063569486 -0.16951862 -0.031784743 -0.063569486 0.12713897
0.24368301 0.052974567 -0.11654405 -0.48736602 0.19070844 -0.10594913 -0.5615304 0.063569486
0.22249319 0.2330881 -0.010594914 0.3072525 -0.16951862 -0.27546775 -0.26487285 0.19070844
0.063569486 -0.16951862 -0.3072525 -0.32844234 -0.18011354 0.052974567 0.32844234 -0.063569486
0.42379653 0.18011354 -0.21189827 0.26487285 -0.2966576 0.4661762 -0.37082198 -0.08475931
-0.2330881 -0.37082198 0.2330881 -0.063569486 -0.13773388 -0.10594913 -0.13773388 0.22249319
-0.08475931 -0.2330881 -0.11654405 -0.063569486 -0.41320163 0.25427794 0.18011354 -0.063569486
0.052974567 -0.4661762 0.24368301 0.08475931 -0.042379655 -0.031784743 -0.26487285 0.10594913
0.20130336 -0.16951862 -0.08475931 -0.10594913 0.09535422 -0.1483288 -0.031784743 0.063569486
0.1483288 -0.042379655 -0.16951862 0.042379655 -0.22249319 0.08475931 0.3178474 0.1483288

model_9/dense_18/MatMul i1 [100, 192] scale=0.009122046 zero_point=0
00000000: f8f4 f609 fa02 fcf6 f3f6 07fc 09fc f607
00000010: f8f4 f10b 07ee fcf2 f2fe 0409 fc10 05f6
00000020: f2fc fbf5 f704 04f2 000a f4fa faf1 0c06
00000030: 0bf7 f60c 01ed f7ef f3f8 0afd f603 fe02
00000040: 0102 0a08 fefb 03f1 f4ff f3f1 fdf9 0401
00000050: f4f9 0bf9 0a03 0600 fdf9 05fd fe0f f3f5
00000060: 02ff fef1 03f6 0df8 04f4 ee07 0503 f5f9
00000070: fb07 effb f3fc 0d0e 0af8 f6fc 01f2 fbfe
00000080: f7f7 f505 f8fa fdf5 fef1 ebf6 0106 0af0
00000090: 0afd 06f8 00fd ff0b 0ffd fe03 f4fe 06f5
000000a0: f5f2 0af3 f508 f80a 03f5 0cf8 f8f2 040b
000000b0: fef9 f0f3 fcff f7fb f0fc 07fb fc0c 0cf3
000000c0: f603 ef01 030b f509 04ee 07fd ffff eff0
000000d0: 03ff f3fd edf0 f202 f503 fb07 f0fd f1e8
000000e0: f902 fefd 07ed f5ef 06ed 00f9 f40a 07fc
000000f0: f3f0 f50b 02ee fdf7 03fb 07f2 faf4 09e7
-0.072976366 -0.10946455 -0.09122045 0.08209841 -0.054732274 0.018244091 -0.036488183 -0.09122045
-0.11858659 -0.09122045 0.06385432 -0.036488183 0.08209841 -0.036488183 -0.09122045 0.06385432
-0.072976366 -0.10946455 -0.13683069 0.100342505 0.06385432 -0.16419682 -0.036488183 -0.12770864
-0.12770864 -0.018244091 0.036488183 0.08209841 -0.036488183 0.14595273 0.045610227 -0.09122045
-0.12770864 -0.036488183 -0.045610227 -0.100342505 -0.08209841 0.036488183 0.036488183 -0.12770864
0.0 0.09122045 -0.10946455 -0.054732274 -0.054732274 -0.13683069 0.10946455 0.054732274
0.100342505 -0.08209841 -0.09122045 0.10946455 0.009122046 -0.17331886 -0.08209841 -0.15507478
-0.11858659 -0.072976366 0.09122045 -0.027366137 -0.09122045 0.027366137 -0.018244091 0.018244091
0.009122046 0.018244091 0.09122045 0.072976366 -0.018244091 -0.045610227 0.027366137 -0.13683069
-0.10946455 -0.009122046 -0.11858659 -0.13683069 -0.027366137 -0.06385432 0.036488183 0.009122046
-0.10946455 -0.06385432 0.100342505 -0.06385432 0.09122045 0.027366137 0.054732274 0.0
-0.027366137 -0.06385432 0.045610227 -0.027366137 -0.018244091 0.13683069 -0.11858659 -0.100342505
0.018244091 -0.009122046 -0.018244091 -0.13683069 0.027366137 -0.09122045 0.11858659 -0.072976366
0.036488183 -0.10946455 -0.16419682 0.06385432 0.045610227 0.027366137 -0.100342505 -0.06385432
-0.045610227 0.06385432 -0.15507478 -0.045610227 -0.11858659 -0.036488183 0.11858659 0.12770864
0.09122045 -0.072976366 -0.09122045 -0.036488183 0.009122046 -0.12770864 -0.045610227 -0.018244091
-0.08209841 -0.08209841 -0.100342505 0.045610227 -0.072976366 -0.054732274 -0.027366137 -0.100342505
-0.018244091 -0.13683069 -0.19156297 -0.09122045 0.009122046 0.054732274 0.09122045 -0.14595273
0.09122045 -0.027366137 0.054732274 -0.072976366 0.0 -0.027366137 -0.009122046 0.100342505
0.13683069 -0.027366137 -0.018244091 0.027366137 -0.10946455 -0.018244091 0.054732274 -0.100342505
-0.100342505 -0.12770864 0.09122045 -0.11858659 -0.100342505 0.072976366 -0.072976366 0.09122045
0.027366137 -0.100342505 0.10946455 -0.072976366 -0.072976366 -0.12770864 0.036488183 0.100342505
-0.018244091 -0.06385432 -0.14595273 -0.11858659 -0.036488183 -0.009122046 -0.08209841 -0.045610227
-0.14595273 -0.036488183 0.06385432 -0.045610227 -0.036488183 0.10946455 0.10946455 -0.11858659
-0.09122045 0.027366137 -0.15507478 0.009122046 0.027366137 0.100342505 -0.100342505 0.08209841
0.036488183 -0.16419682 0.06385432 -0.027366137 -0.009122046 -0.009122046 -0.15507478 -0.14595273
0.027366137 -0.009122046 -0.11858659 -0.027366137 -0.17331886 -0.14595273 -0.12770864 0.018244091
-0.100342505 0.027366137 -0.045610227 0.06385432 -0.14595273 -0.027366137 -0.13683069 -0.2189291
-0.06385432 0.018244091 -0.018244091 -0.027366137 0.06385432 -0.17331886 -0.100342505 -0.15507478
0.054732274 -0.17331886 0.0 -0.06385432 -0.10946455 0.09122045 0.06385432 -0.036488183
-0.11858659 -0.14595273 -0.100342505 0.100342505 0.018244091 -0.16419682 -0.027366137 -0.08209841
0.027366137 -0.045610227 0.06385432 -0.12770864 -0.054732274 -0.10946455 0.08209841 -0.22805114

model_9/conv1d_39/Conv1D i1 [32, 1, 3, 32]
00000000: e0e4 fc01 a0d0 fcb6 22dd ded2 e4d7 e0d9
00000010: 2a10 2841 e3fe dad4 0a22 4bda f8f0 f4fd
00000020: f225 d021 aec9 1b17 e20a f824 c9b5 d13d
00000030: e41a cde8 b40b b9e1 5c09 f2db 05c9 ec24
00000040: f1cb dc01 d0ca e442 682e dfef d1e0 d219
00000050: 6a7f f7d7 d5a5 fef8 18b1 e7e2 11d9 d7e3
00000060: cc24 d0ec ac64 1977 7f00 6509 dac6 f72e
00000070: 0f10 2059 d525 c6f3 4c62 3ed9 13db db08
00000080: f21c dde0 cffb 03db 2612 203c ede1 02fc
00000090: 2c30 f7d5 ec1b de0c ec12 2df7 ddfa 22f3
000000a0: f4f3 08e2 fb28 f3fb aafd 6113 fa17 04e7
000000b0: 1afa f02d 0ec8 0d07 dbf3 0a0e f814 2402
000000c0: db1e a201 cc18 fd26 7205 fd0b d8dd e172
000000d0: 37be 2457 f935 cd1a 323a dbcf e7bd d712
000000e0: 09e9 08f8 2af6 0411 31db 20f9 cadf de75
000000f0: e9e3 cf41 bffd dbfe 1d7f c1e0 08d1 f5f9
-32 -28 -4 1 -96 -48 -4 -74
34 -35 -34 -46 -28 -41 -32 -39
42 16 40 65 -29 -2 -38 -44
10 34 75 -38 -8 -16 -12 -3
-14 37 -48 33 -82 -55 27 23
-30 10 -8 36 -55 -75 -47 61
-28 26 -51 -24 -76 11 -71 -31
92 9 -14 -37 5 -55 -20 36
-15 -53 -36 1 -48 -54 -28 66
104 46 -33 -17 -47 -32 -46 25
106 127 -9 -41 -43 -91 -2 -8
24 -79 -25 -30 17 -39 -41 -29
-52 36 -48 -20 -84 100 25 119
127 0 101 9 -38 -58 -9 46
15 16 32 89 -43 37 -58 -13
76 98 62 -39 19 -37 -37 8
-14 28 -35 -32 -49 -5 3 -37
38 18 32 60 -19 -31 2 -4
44 48 -9 -43 -20 27 -34 12
-20 18 45 -9 -35 -6 34 -13
-12 -13 8 -30 -5 40 -13 -5
-86 -3 97 19 -6 23 4 -25
26 -6 -16 45 14 -56 13 7
-37 -13 10 14 -8 20 36 2
-37 30 -94 1 -52 24 -3 38
114 5 -3 11 -40 -35 -31 114
55 -66 36 87 -7 53 -51 26
50 58 -37 -49 -25 -67 -41 18
9 -23 8 -8 42 -10 4 17
49 -37 32 -7 -54 -33 -34 117
-23 -29 -49 65 -65 -3 -37 -2
29 127 -63 -32 8 -47 -11 -7

model_9/conv1d_38/Conv1D i1 [32, 1, 3, 32]
00000000: e4f6 ffc4 c281 46cd dd9e c90d 4ef7 e30b
00000010: 340e acf0 014d e9cd a8fd f915 3440 34af
00000020: 02f8 deea ebd7 1ee4 12b7 b40b 33ed b428
00000030: 342e ced9 2137 e1e0 d1e8 e0f4 0f10 0ff5
00000040: f3c2 08f3 b5a4 fab7 e8f9 e504 5e0b da23
00000050: f03f e3e2 2e01 caee c6f8 eef9 243e 23f9
00000060: d216 5b88 f89b 9d87 b3a4 e199 9858 c922
00000070: 871f f2d1 833a f90a 93ff dbc8 dad2 1c05
00000080: d705 1048 ccb9 178b ef02 49bb 4fba c95b
00000090: fbc9 5c66 3604 1fdc ddf3 f181 83d2 29f4
000000a0: 0428 40f2 e251 ce03 6dc8 2d0d e14c 8f50
000000b0: 2432 b19d dfb9 868d 580a af09 3668 8a44
000000c0: e0f9 15be fe9b 4fd3 e4b3 c4fb 7ffa c25f
000000d0: 3f5e d3e7 5c6b dcc7 bc16 f945 5f60 15bb
000000e0: f10f fe00 0cd6 feea 20f4 f614 282d e5ef
000000f0: 3c23 f5d5 ff3d d305 21e7 0e26 1ffc 0b17
-28 -10 -1 -60 -62 -127 70 -51
-35 -98 -55 13 78 -9 -29 11
52 14 -84 -16 1 77 -23 -51
-88 -3 -7 21 52 64 52 -81
2 -8 -34 -22 -21 -41 30 -28
18 -73 -76 11 51 -19 -76 40
52 46 -50 -39 33 55 -31 -32
-47 -24 -32 -12 15 16 15 -11
-13 -62 8 -13 -75 -92 -6 -73
-24 -7 -27 4 94 11 -38 35
-16 63 -29 -30 46 1 -54 -18
-58 -8 -18 -7 36 62 35 -7
-46 22 91 -120 -8 -101 -99 -121
-77 -92 -31 -103 -104 88 -55 34
-121 31 -14 -47 -125 58 -7 10
-109 -1 -37 -56 -38 -46 28 5
-41 5 16 72 -52 -71 23 -117
-17 2 73 -69 79 -70 -55 91
-5 -55 92 102 54 4 31 -36
-35 -13 -15 -127 -125 -46 41 -12
4 40 64 -14 -30 81 -50 3
109 -56 45 13 -31 76 -113 80
36 50 -79 -99 -33 -71 -122 -115
88 10 -81 9 54 104 -118 68
-32 -7 21 -66 -2 -101 79 -45
-28 -77 -60 -5 127 -6 -62 95
63 94 -45 -25 92 107 -36 -57
-68 22 -7 69 95 96 21 -69
-15 15 -2 0 12 -42 -2 -22
32 -12 -10 20 40 45 -27 -17
60 35 -11 -43 -1 61 -45 5
33 -25 14 38 31 -4 11 23

model_9/conv1d_37/Conv1D i1 [32, 1, 3, 32]
00000000: 170d 0f11 f727 e3f1 eeee e9e9 4717 c812
00000010: 7fec ff23 e213 ec1a 1cda 04dd da33 081f
00000020: 3326 0a26 0b16 f41d fbf1 ddd9 25fa c920
00000030: b107 0f24 16f9 281b dc23 e9f9 14f0 f4dd
00000040: 23da 2305 16e3 fb17 01da 1bed 13fa 5dfc
00000050: b40b 1124 0fef def7 1c0b 05e7 e1f4 2a20
00000060: 011b f215 fef9 faf7 e2fb fc1c 1a05 fc19
00000070: e0f7 f117 f1fc e20a 1b13 07e2 0af3 0907
00000080: 0c0b e2f3 fcf4 0006 0fe3 ffe9 f30d 7fed
00000090: 47e7 001c f5ef 0c00 e312 0e12 ece9 01f0
000000a0: 1208 1901 09f0 030d 0f01 e510 210f 3605
000000b0: 3eed f100 05fe 07fc 02fc 1712 f222 1de9
000000c0: ac9d 795a fb2d c00c b91a ba55 39d4 b752
000000d0: 1614 4b4c ac3c 9e0f badd d2b6 2287 2728
000000e0: 9d7d 2bd5 bdf9 992d ca3c 2308 21c4 8d17
000000f0: b526 a917 b5ac 027c f301 6a63 6e82 652d
23 13 15 17 -9 39 -29 -15
-18 -18 -23 -23 71 23 -56 18
127 -20 -1 35 -30 19 -20 26
28 -38 4 -35 -38 51 8 31
51 38 10 38 11 22 -12 29
-5 -15 -35 -39 37 -6 -55 32
-79 7 15 36 22 -7 40 27
-36 35 -23 -7 20 -16 -12 -35
35 -38 35 5 22 -29 -5 23
1 -38 27 -19 19 -6 93 -4
-76 11 17 36 15 -17 -34 -9
28 11 5 -25 -31 -12 42 32
1 27 -14 21 -2 -7 -6 -9
-30 -5 -4 28 26 5 -4 25
-32 -9 -15 23 -15 -4 -30 10
27 19 7 -30 10 -13 9 7
12 11 -30 -13 -4 -12 0 6
15 -29 -1 -23 -13 13 127 -19
71 -25 0 28 -11 -17 12 0
-29 18 14 18 -20 -23 1 -16
18 8 25 1 9 -16 3 13
15 1 -27 16 33 15 54 5
62 -19 -15 0 5 -2 7 -4
2 -4 23 18 -14 34 29 -23
-84 -99 121 90 -5 45 -64 12
-71 26 -70 85 57 -44 -73 82
22 20 75 76 -84 60 -98 15
-70 -35 -46 -74 34 -121 39 40
-99 125 43 -43 -67 -7 -103 45
-54 60 35 8 33 -60 -115 23
-75 38 -87 23 -75 -84 2 124
-13 1 106 99 110 -126 101 45

model_9/conv1d_36/Conv1D i1 [32, 1, 3, 6]
00000000: 08ae 2200 e411 2781 37c3 f7dc feb8 22f2
00000010: 1911 e771 2beb b3ec abb3 1c30 4130 813b
00000020: d478 92a2 f45a 957e bc88 4051 ce1b 8129
00000030: 9b1a 38fb def0 1ee1 2bf1 326d 8195 d33d
00000040: ff47 b546 ead5 eed5 bd53 f79d cf13 848a
00000050: 1fab 0f7f f84e bf49 4706 81ef f8e4 c2c7
00000060: 7012 d8ee 8a17 4ba8 41d5 b5b7 041f c1ef
00000070: be53 ff1a b638 f949 11f5 811c 2449 174c
00000080: 1feb 1c22 1bd3 9c0c 8b3f 2cd2 d2b6 81f8
00000090: 3809 c12c 31b7 f53a c23c ff0f a9e5 813b
000000a0: c438 81b9 c87e fe6c 3929 54de 4a8e fb41
000000b0: 8507 f7a6 4d1f 2d96 dc5b f00f 81c5 902d
000000c0: ed02 2ea2 36bd a1a0 78e2 d09d e5cd 3b97
000000d0: 010a 1122 f181 ddc5 9107 7f14 34bd c9ba
000000e0: 740e f2fe a642 bfed d5c4 5128 147f b6db
000000f0: 81be 45fd e113 d30c dcb9 ff1e 423f 7dc7
8 -82 34 0 -28 17 39 -127
55 -61 -9 -36 -2 -72 34 -14
25 17 -25 113 43 -21 -77 -20
-85 -77 28 48 65 48 -127 59
-44 120 -110 -94 -12 90 -107 126
-68 -120 64 81 -50 27 -127 41
-101 26 56 -5 -34 -16 30 -31
43 -15 50 109 -127 -107 -45 61
-1 71 -75 70 -22 -43 -18 -43
-67 83 -9 -99 -49 19 -124 -118
31 -85 15 127 -8 78 -65 73
71 6 -127 -17 -8 -28 -62 -57
112 18 -40 -18 -118 23 75 -88
65 -43 -75 -73 4 31 -63 -17
-66 83 -1 26 -74 56 -7 73
17 -11 -127 28 36 73 23 76
31 -21 28 34 27 -45 -100 12
-117 63 44 -46 -46 -74 -127 -8
56 9 -63 44 49 -73 -11 58
-62 60 -1 15 -87 -27 -127 59
-60 56 -127 -71 -56 126 -2 108
57 41 84 -34 74 -114 -5 65
-123 7 -9 -90 77 31 45 -106
-36 91 -16 15 -127 -59 -112 45
-19 2 46 -94 54 -67 -95 -96
120 -30 -48 -99 -27 -51 59 -105
1 10 17 34 -15 -127 -35 -59
-111 7 127 20 52 -67 -55 -70
116 14 -14 -2 -90 66 -65 -19
-43 -60 81 40 20 127 -74 -37
-127 -66 69 -3 -31 19 -45 12
-36 -71 -1 30 66 63 125 -57
